…
 61), (392, 392), (823, 823), (427, 427), (883, 883), (96, 96), (514, 514), (990, 990), (22, 22), (835, 835), (
2025-05-04 14:59:34,227 - modeling_grasp - INFO - ++++++++++++++++++++++++++++++++++++++++++++++++++++++++++++++++++++++++++++++++++++++++++++++++++++
2025-05-04 14:59:34,464 - __main__ - INFO - =======> Done!
2025-05-04 15:01:05,825 - __main__ - INFO - =======> Starting recovery with efficient finetuning
2025-05-04 15:01:05,829 - alpaca_grasp - INFO - Finetuning GRASP model with params:
base_model: GRASPModel(
  (model): LlamaForCausalLM(
    (model): LlamaModel(
      (embed_tokens): Embedding(32000, 4096)
      (layers): ModuleList(
        (0-22): 23 x LlamaDecoderLayer(
          (self_attn): LlamaSdpaAttention(
            (q_proj): Linear(in_features=4096, out_features=4096, bias=False)
            (k_proj): Linear(in_features=4096, out_features=4096, bias=False)
            (v_proj): Linear(in_features=4096, out_features=4096, bias=False)
            (o_proj): Linear(in_features=4096, out_features=4096, bias=False)
            (rotary_emb): LlamaRotaryEmbedding()
          )
          (mlp): LlamaMLP(
            (gate_proj): Linear(in_features=4096, out_features=11008, bias=False)
            (up_proj): Linear(in_features=4096, out_features=11008, bias=False)
            (down_proj): Linear(in_features=11008, out_features=4096, bias=False)
            (act_fn): SiLU()
          )
          (input_layernorm): LlamaRMSNorm((4096,), eps=1e-05)
          (post_attention_layernorm): LlamaRMSNorm((4096,), eps=1e-05)
        )
        (23-29): 7 x LlamaDecoderLayer(
          (self_attn): LlamaSdpaAttention(
            (q_proj): TuckerLinear(
              (InLinear): Linear(in_features=4096, out_features=1024, bias=False)
              (CoreLinear): Linear(in_features=1024, out_features=1024, bias=False)
              (OutLinear): Linear(in_features=1024, out_features=4096, bias=False)
            )
            (k_proj): TuckerLinear(
              (InLinear): Linear(in_features=4096, out_features=1024, bias=False)
              (CoreLinear): Linear(in_features=1024, out_features=1024, bias=False)
              (OutLinear): Linear(in_features=1024, out_features=4096, bias=False)
            )
            (v_proj): TuckerLinear(
              (InLinear): Linear(in_features=4096, out_features=1024, bias=False)
              (CoreLinear): Linear(in_features=1024, out_features=1024, bias=False)
              (OutLinear): Linear(in_features=1024, out_features=4096, bias=False)
            )
            (o_proj): TuckerLinear(
              (InLinear): Linear(in_features=4096, out_features=1024, bias=False)
              (CoreLinear): Linear(in_features=1024, out_features=1024, bias=False)
              (OutLinear): Linear(in_features=1024, out_features=4096, bias=False)
            )
            (rotary_emb): LlamaRotaryEmbedding()
          )
          (mlp): LlamaMLP(
            (gate_proj): TuckerLinear(
              (InLinear): Linear(in_features=4096, out_features=1024, bias=False)
              (CoreLinear): Linear(in_features=1024, out_features=2752, bias=False)
              (OutLinear): Linear(in_features=2752, out_features=11008, bias=False)
            )
            (up_proj): TuckerLinear(
              (InLinear): Linear(in_features=4096, out_features=1024, bias=False)
              (CoreLinear): Linear(in_features=1024, out_features=2752, bias=False)
              (OutLinear): Linear(in_features=2752, out_features=11008, bias=False)
            )
            (down_proj): TuckerLinear(
              (InLinear): Linear(in_features=11008, out_features=2752, bias=False)
              (CoreLinear): Linear(in_features=2752, out_features=1024, bias=False)
              (OutLinear): Linear(in_features=1024, out_features=4096, bias=False)
            )
            (act_fn): SiLU()
          )
          (input_layernorm): LlamaRMSNorm((4096,), eps=1e-05)
          (post_attention_layernorm): LlamaRMSNorm((4096,), eps=1e-05)
        )
        (30-31): 2 x LlamaDecoderLayer(
          (self_attn): LlamaSdpaAttention(
            (q_proj): Linear(in_features=4096, out_features=4096, bias=False)
            (k_proj): Linear(in_features=4096, out_features=4096, bias=False)
            (v_proj): Linear(in_features=4096, out_features=4096, bias=False)
            (o_proj): Linear(in_features=4096, out_features=4096, bias=False)
            (rotary_emb): LlamaRotaryEmbedding()
          )
          (mlp): LlamaMLP(
            (gate_proj): Linear(in_features=4096, out_features=11008, bias=False)
            (up_proj): Linear(in_features=4096, out_features=11008, bias=False)
            (down_proj): Linear(in_features=11008, out_features=4096, bias=False)
            (act_fn): SiLU()
          )
          (input_layernorm): LlamaRMSNorm((4096,), eps=1e-05)
          (post_attention_layernorm): LlamaRMSNorm((4096,), eps=1e-05)
        )
      )
      (norm): LlamaRMSNorm((4096,), eps=1e-05)
      (rotary_emb): LlamaRotaryEmbedding()
    )
    (lm_head): Linear(in_features=4096, out_features=32000, bias=False)
  )
)
data_path: yahma/alpaca-cleaned
output_dir: ./checkpoint
batch_size: 32
num_epochs: 1
learning_rate: 0.0003
val_set_size: 2000
train_on_inputs: False
add_eos_token: False
resume_from_checkpoint: False
prompt template: alpaca

2025-05-04 15:01:05,834 - alpaca_grasp - INFO - trainable params: 1047732224 || all params: 6369464320 || trainable: 16.45%
…
